data.pth (torch, 26047 bytes, 6 tensors)

l1.weight f4 [8, 509]
000000 f9 07 c0 3f fd 71 87 3d 81 c4 96 3e 41 82 06 3e
       1.5002433 0.066135384 0.29446796 0.13135625
000010 d7 c6 59 3d 14 51 e7 be 1c 33 7c bd 5c 34 bf 3f
       0.053168144 -0.45179045 -0.06157218 1.4937854
000020 26 58 86 3f 4a db 87 3f 07 3f 7d be ee 89 f1 be
       1.0495651 1.0613797 -0.24731074 -0.47175545
000030 ed f2 ef 3d ee 34 f0 be 00 ee 7a be f6 05 00 be
       0.11716256 -0.46915382 -0.24504852 -0.12502274
000040 15 43 1f be 07 5c 0c 3e 56 fb 3f be 6c 83 4a be
       -0.15552934 0.1370698 -0.18748221 -0.19776696
000050 f1 46 a3 3d e1 0d 9e 3e e1 3d 2d bf 65 31 8a 3e
       0.079725154 0.30869964 -0.67672545 0.2699081
000060 75 53 0a 3e ed 3d f3 be 5a 5e 99 3e 75 19 68 3e
       0.13508399 -0.47508183 0.29954797 0.22665961
000070 34 74 d4 bc 54 bf 2e bf ba 1c d0 bd 7f 47 90 3e
       -0.025934316 -0.68260694 -0.10161729 0.28179547
000080 66 d4 ef 3d bf 65 03 bf a4 aa fa 3e 7a 0c 26 3e
       0.11710434 -0.5132713 0.48958313 0.16215697
000090 87 50 7a 3e 2e 63 dd 3e 39 68 30 3d 92 23 8e 3e
       0.24444781 0.4323973 0.043068144 0.27761513
0000a0 a9 8d cb 3d 04 76 dc 3e 82 ad 9e 3e 1f b0 9d 3e
       0.09939129 0.4305879 0.3099175 0.30798432
0000b0 66 fb 92 3e 6f 94 2f 3e eb f5 aa be 93 74 a6 be
       0.28707427 0.17146467 -0.33390746 -0.32510814
0000c0 a1 5a 5e 3d a2 65 90 3e 38 0d 14 3e 8f 1c 01 bf
       0.05428565 0.2820254 0.14458168 -0.504342
0000d0 13 c0 22 bf 15 ee 88 bd 34 e8 f6 3e 5a 68 04 3e
       -0.6357433 -0.066860355 0.48224032 0.12930432
0000e0 6d b7 f2 be d1 a2 19 bf 86 5a 68 3e 77 48 86 3e
       -0.47405568 -0.60014063 0.22690782 0.2622716
0000f0 e3 e9 60 3c f9 1b 32 bf 2b 9b 13 bf 1b 8c 24 3d
       0.013727638 -0.6957393 -0.5765864 0.040172677
000100 23 d6 a6 3d fa 1a 39 3d db bc dc be b0 40 74 3e
       0.08146312 0.045191742 -0.43112835 0.23852801
000110 8c 35 b1 be 12 7c ac 3d b3 73 85 3d 88 64 44 bf
       -0.34611166 0.08422102 0.065162085 -0.767159
000120 a2 f3 af 3c 50 40 ef 3e 5e eb a1 be 58 d3 7d be
       0.021478478 0.46728754 -0.31624883 -0.24787652
000130 78 7b 45 3e 08 7a e6 3e 71 f5 93 be 91 5a 7c 3d
       0.19285381 0.45014977 -0.28898194 0.06160981
000140 fa 7f aa 3e 1b dc 56 3d bb 0a cd be 32 f8 33 3e
       0.33300763 0.052456003 -0.4004725 0.17575148
000150 48 1f f8 3e 05 ad 96 be 6c 2a 93 3d 0d 44 47 3d
       0.48461366 -0.29428878 0.07185826 0.048648883
000160 60 76 23 3f 80 f8 59 3e 4d 66 76 3d 75 f2 56 3d
       0.638525 0.21286201 0.060156155 0.05247732
000170 d8 f4 44 3d 4c a0 25 3f ad 9d 5d 3d 24 76 17 3d
       0.048085064 0.6469772 0.05410545 0.036977902
000180 30 c2 55 3f c7 a0 9d 3e 3b 33 6e 3e 1a 61 5b 3e
       0.8349943 0.30786726 0.2326173 0.2142376
000190 20 e5 1e 3e 0c e9 90 3d 7c d4 1d 3f c0 87 87 3e
       0.15517092 0.070757 0.6165235 0.26470757
0001a0 5c 9e 81 3d 75 e5 b6 3c 84 ed 29 3f 3a 28 6a 3e
       0.06329033 0.02232621 0.66378045 0.22866908
0001b0 bb e5 3b 3d 16 e1 4c bf 0e d1 01 3f 5c f0 98 3d
       0.045873385 -0.80030954 0.5070962 0.0746772
0001c0 ab 46 89 3e 51 3b 9c 3d 5b 69 f1 be 5e 7a 30 3e
       0.26811728 0.07628501 -0.47150692 0.1723418
0001d0 b2 9f b6 be 11 f8 9f 3d 21 c3 51 3f c4 ce 4c be
       -0.35668713 0.07810987 0.8193837 -0.2000075
0001e0 d4 e1 a9 be 24 bf fe 3c dc 79 19 3f 84 94 95 3e
       -0.33180106 0.031097002 0.5995157 0.2921487
0001f0 44 10 a9 3c 99 93 fd 3e fd 03 b6 be 3d 8a 42 3f
       0.020637639 0.4952667 -0.35549918 0.75992185
000200 f3 09 8f 3e 64 14 0d 3f 2f a4 87 3d b5 95 a1 3d
       0.27937278 0.5510924 0.066231124 0.078898825
000210 69 f6 3a 3f 32 31 7b 3e ad 28 01 3f 78 9a 9a 3d
       0.7303224 0.24530485 0.5045269 0.07548994
000220 ae 3c c4 3c 43 7f b8 3a 64 58 30 3f a5 66 89 3e
       0.023954716 0.0014076013 0.68884873 0.26836124
000230 31 67 0e 3f 6c ba 4f 3d e7 30 99 3e 46 57 35 3d
       0.5562621 0.050714895 0.29920122 0.044272684
000240 45 6d 3f 3f 66 4a 4b 3e 68 70 00 3f b2 ff 6c 3d
       0.7477611 0.198526 0.5017152 0.057861038
000250 32 ea 8a 3e 01 35 ac 3d 57 02 bf bd 9e c6 42 3f
       0.27131802 0.08408547 -0.09326618 0.76084316
000260 01 06 5a 3e 8b be fe 3e ee a1 08 3d 43 f0 99 3d
       0.21291353 0.49754748 0.033357553 0.075165294
000270 a3 fb dc 3b 65 f2 38 bf 08 da 46 3e 92 85 54 3d
       0.0067438646 -0.72244865 0.1941911 0.051885195
000280 b1 56 b2 bd da 27 33 3c 30 6b 9c 3c 19 da f3 3d
       -0.08707941 0.010934794 0.01909408 0.11906833
000290 23 c5 29 bf ce 3a 0e 3d 40 d7 cb 3d 61 e0 f9 bc
       -0.6631643 0.03472405 0.09953165 -0.0305025
0002a0 5f 76 cd bd 84 15 65 3e cf d0 cb be 7a 6b c0 3e
       -0.10032343 0.22371489 -0.39807746 0.37581998
0002b0 d4 c1 e4 3d 45 8b 25 3e c7 fe db 3d fc 73 12 3e
       0.11169782 0.16166408 0.10741954 0.14302057
0002c0 12 84 89 3d 0e e0 ac be 15 23 a5 be fd 1d d6 be
       0.067146435 -0.3376469 -0.32253328 -0.41819754
0002d0 d4 c5 86 3d da c2 3d 3d e9 7e 30 bf 51 85 18 3d
       0.065807015 0.046328403 -0.6894365 0.037236515
0002e0 18 2f a5 be ae cc 91 bd 39 33 69 3d 55 53 4f 3d
       -0.32262492 -0.07119118 0.056933615 0.05061658
0002f0 7e da ef 3d 14 dd 40 3e a9 7f 0e 3e bf f0 3a bb
       0.11711596 0.18834335 0.13915886 -0.0028524844
000300 cb 0f c6 3d 2e e0 6c 3d bf bf 14 3e f1 ed c1 3d
       0.09670981 0.057830982 0.1452627 0.09469212
000310 51 97 20 3e 3d ec c3 3d 25 f0 b0 3d ce fd 82 ba
       0.15682723 0.09566543 0.08639554 -0.0009993853
000320 82 b7 7c bd c4 45 f9 3b c4 ea 14 3d b3 31 f3 bd
       -0.061698444 0.0076071937 0.036356702 -0.11874714
000330 46 dd a3 be 84 99 1f 3d b6 7f 07 be 15 5f 26 bf
       -0.32004756 0.038964763 -0.13232312 -0.64988834
000340 eb fa 6e 3d 11 24 21 3c 34 3f b0 be 22 a4 72 3d
       0.058344763 0.009835259 -0.3442322 0.05923856
000350 65 0b 33 3c c9 36 36 be b7 f5 fa bc 0e b0 80 3d
       0.01092801 -0.17794336 -0.030634744 0.0628358
000360 f4 f9 34 3c 96 cb f5 3d ad da fc bc c6 e8 f9 3d
       0.011045922 0.120017216 -0.030865991 0.12202601
000370 4d 56 d3 be ce 7c 6d 3d fa 76 6c 3d e5 09 c8 be
       -0.4127678 0.05798035 0.057730652 -0.3907005
000380 6a 6a db be 74 67 c2 be 73 06 59 3d 7d 0a 87 bd
       -0.42854625 -0.37969553 0.052984666 -0.06593797
000390 5a 59 a6 bd 82 4c 1f be 1f f7 33 3f 9e 5f 3e 3e
       -0.08122511 -0.15556529 0.7029895 0.18591163
0003a0 39 e9 cd be 9a 50 af bd c9 1b 7e 3d 5e bd 9f 3d
       -0.40216997 -0.085602954 0.062038217 0.07799791
0003b0 ce 73 12 3d 0e b3 5c bd 25 2c a1 3e ba 96 a1 bd
       0.03575497 -0.053881697 0.31478992 -0.07890077
0003c0 0d 33 b7 bc 91 db 90 3d 7b fd 43 be 02 72 80 3d
       -0.02236321 0.07073129 -0.19139664 0.06271745
0003d0 62 9d 98 3d a4 58 04 3f 7a ed 84 3e 88 a9 10 3f
       0.074518934 0.51697755 0.2596243 0.56508684
0003e0 3d b5 93 3e 46 9e 87 3e ff 3a 44 3e bc b5 4e 3f
       0.2884921 0.2648794 0.1916313 0.80746055
0003f0 f8 10 0a 3f 00 22 0c 3f 4d c5 18 3e 24 f6 1b 3f
       0.5393214 0.5473938 0.14919014 0.60922456

l1.bias f4 [8]
000000 bd fd 76 3e a1 2b 8f 3f e1 cb d5 3e 14 55 01 40
       0.24120231 1.118519 0.4175711 2.0208178
000010 40 b5 4c 3f 87 11 b4 3f 47 34 69 3f 6e cf 90 bb
       0.79964066 1.4067849 0.91095394 -0.004419259

l2.weight f4 [8, 8]
000000 ef ce c4 be c2 68 38 3e d0 48 d7 3e 20 8d f9 3f
       -0.38439128 0.18008712 0.4204774 1.9496193
000010 5c cb e4 be 64 b6 88 3f 0d e7 31 3f be 54 35 bf
       -0.446864 1.0680661 0.6949318 -0.7083243
000020 82 28 63 be 5d 0f 84 3f f6 65 98 bf 12 a3 11 3f
       -0.22183421 1.0317189 -1.1906116 0.5688945
000030 cc ab 88 3d fd 37 60 3f 2b 29 84 be 1c 83 01 bf
       0.06673393 0.8758543 -0.2581266 -0.5059068
000040 b8 d6 59 3e c3 cf 41 3f d0 8d d2 3e 37 45 1d be
       0.21273315 0.75707644 0.4112382 -0.15358435
000050 47 5b 15 bf 99 ca 83 3e 3a 98 1b 3f 9b 7e f7 3e
       -0.58342403 0.25740507 0.60779154 0.4833878
000060 96 a3 05 3f 39 54 9c be 5c ea 9f be 80 bd 39 bf
       0.5220274 -0.30533007 -0.3123349 -0.7255478
000070 7b c3 2f 3e 6f 09 ec 3e cf 30 50 be cc ec a7 be
       0.17164414 0.46100947 -0.20331119 -0.3279785
000080 68 35 86 bd 08 f4 09 3f ba 35 d8 3e 84 b6 93 be
       -0.06553155 0.5388799 0.4222849 -0.28850186
000090 ad 55 3a 3f 0d d2 2f bf b4 dc 0b bf 4b f8 28 3e
       0.7278698 -0.6867989 -0.5463364 0.16500966
0000a0 1c 96 4c 3f 01 e8 2b be f6 95 47 bf 7a 49 39 be
       0.7991655 -0.16787721 -0.779632 -0.18094435
0000b0 16 bc 86 3e a1 35 58 3f 88 85 94 bf c1 ee c1 3e
       0.26315373 0.8445683 -1.160325 0.37877467
0000c0 76 07 22 3f c3 bc 9c 3e a1 94 ed be 00 d3 33 bf
       0.63292634 0.30612764 -0.46402457 -0.70243835
0000d0 8e ce 82 3e 08 48 08 3f 19 7f 39 3f 9d 77 14 3f
       0.25548214 0.5323491 0.7245956 0.57995015
0000e0 73 7b 01 bf 58 85 d6 be c1 e1 23 3f 6c 08 6e 3f
       -0.50578994 -0.41898608 0.6401635 0.929816
0000f0 32 3e 07 3f bf 0c 59 3f 3d 5f 8c 3e 61 81 21 bf
       0.5282928 0.84785074 0.2741641 -0.6308804

l2.bias f4 [8]
000000 fe 8f 82 3f 08 9b 0d 3f a4 b4 d2 be 90 06 6d 3d
       1.0200193 0.55314684 -0.41153443 0.057867587
000010 69 44 8d 3e a0 9e c1 3d 50 f6 5b 3e 2e 01 57 3f
       0.27591255 0.094540834 0.2148068 0.83986175

l3.weight f4 [19, 8]
000000 60 ab 0f 3e 4a df 4f 3f 49 0e bc 3e d4 26 a0 bf
       0.14030218 0.8120009 0.3672965 -1.2511849
000010 ed bf 06 c0 34 99 bb be ed da 2b bc e3 eb 76 bf
       -2.1054642 -0.36640322 -0.010489208 -0.96453685
000020 26 3d be 3e b1 78 f4 3e b6 18 2d c0 4a 88 c2 be
       0.37156028 0.4774833 -2.7046332 -0.37994605
000030 99 2b 80 bf b4 4d 18 c0 d1 de a2 bf 55 b7 ea 3e
       -1.0013305 -2.3797426 -1.2724248 0.45842996
000040 60 18 0f 3f cc 29 33 c0 97 b8 f0 bf 61 3c 1e 3e
       0.5589657 -2.799426 -1.8806332 0.1545272
000050 f8 58 b3 bf d8 a2 aa bf e4 78 9b bf 54 c3 80 3f
       -1.4011526 -1.3330946 -1.2146268 1.005961
000060 9c 88 c5 3e 7f 80 d3 bf 11 4e 18 3f d3 64 68 be
       0.38580787 -1.6523589 0.5949412 -0.22694711
000070 e8 21 9c be 8c f5 21 bf c0 68 b3 bf 6d e2 9b 3d
       -0.30494618 -0.632653 -1.4016342 0.07611547
000080 56 62 a8 3e 4a 40 ce bf 40 5f 1a be 42 93 b6 bf
       0.32887524 -1.611337 -0.15075397 -1.426369
000090 7f f5 1a bf 8a 34 ab bf 49 bd 84 3e f2 24 32 bd
       -0.6053085 -1.3375409 0.25925663 -0.043492265
0000a0 c2 f0 c1 3e a4 45 ae 3e 80 5a 94 3d 8e 44 7c be
       0.37878996 0.34037507 0.07243824 -0.24635527
0000b0 a7 c1 0e bf 28 4b ed bf 88 41 e7 bf c6 b0 db be
       -0.5576424 -1.8538561 -1.8066874 -0.42908305
0000c0 a2 d6 42 bf 7c 19 ff 3e 19 41 24 bd 53 be a1 bf
       -0.76108754 0.4982413 -0.040101144 -1.2636207
0000d0 c2 87 f8 bd de ce 34 bf c3 04 73 bd 60 15 18 be
       -0.12135269 -0.70628154 -0.059330713 -0.14851904
0000e0 5b 1e e5 bf 13 a9 ce 3e a9 f4 69 bc c7 19 48 bc
       -1.7899889 0.40363368 -0.014279523 -0.012213177
0000f0 fd 92 24 bf 8c e0 ed 3e 71 4a 99 3c e4 e6 52 bf
       -0.64286786 0.46460378 0.018712254 -0.8238356
000100 5f a3 80 bf 3b d1 42 3e 89 05 4c bf ba a5 97 bf
       -1.0049857 0.19025128 -0.79695946 -1.1847451
000110 94 fe 92 3e ea fd 60 bd 2c b9 ac bd 52 25 66 bf
       0.28709853 -0.05492965 -0.08433756 -0.89900696
000120 fc 68 20 bf d4 e9 73 bf 1e 6a b7 bf 10 61 f5 3e
       -0.62660193 -0.9527867 -1.4329259 0.47925615
000130 fc fb 64 3c 53 0c 55 3f 02 8c 58 3d 3b 22 a3 bf
       0.013976093 0.8322193 0.052867897 -1.2744821
000140 a4 51 e0 bf 29 c7 b1 bf 25 6c b2 be 92 6c ce bf
       -1.7524915 -1.3888904 -0.34848133 -1.6126883
000150 cc 1c e4 3e ff 30 91 be 41 92 1e bd 83 b2 c7 3d
       0.4455322 -0.28357694 -0.038713697 0.09750845
000160 43 e9 8d 3d e4 c8 c7 bf 40 a6 99 be 10 0f bf be
       0.06929257 -1.5608182 -0.3000965 -0.3731618
000170 08 4a 68 3d 90 08 87 3d 09 c8 b1 3e 48 cb 94 be
       0.056711227 0.0659343 0.34722927 -0.2906134
000180 f0 a5 cc bf ac b7 32 be 9d 21 a2 3e 5d 22 be bf
       -1.598814 -0.17452878 0.3166627 -1.4854237
000190 02 27 28 bf 96 6c 28 bf a2 0a 08 3f a0 56 44 bf
       -0.6568452 -0.6579069 0.53141224 -0.7669468
0001a0 02 0c a5 be 68 d4 72 be 83 45 1c c0 82 25 fc 3d
       -0.32235724 -0.23713839 -2.4417427 0.123118415
0001b0 5e 20 95 bf 4e b4 49 3e 60 5f ba 3d 9d 56 6b 3e
       -1.1650503 0.19697687 0.091002226 0.22982259
0001c0 c1 97 eb be 74 e5 6f 3e 57 e1 b6 be 3a 98 b7 3e
       -0.46014217 0.23427373 -0.35718796 0.35858327
0001d0 ea 85 9d bf 33 25 3a 3f 05 21 d9 bd c8 2f 1b bf
       -1.2306492 0.7271301 -0.10602001 -0.60619783
0001e0 f8 48 51 bf 92 5d 2b bf f9 79 32 3f 83 3e 56 3e
       -0.81751966 -0.6693965 0.69717366 0.20922284
0001f0 e5 63 43 be 2c ec 3e bf 12 22 83 be 82 28 65 3f
       -0.19081075 -0.7457912 -0.2561193 0.89514935
000200 af dc d1 bf 47 c7 b7 3e 8d f4 f1 bf fa 0c 79 bd
       -1.6395472 0.35894224 -1.8902756 -0.06080339
000210 a2 11 b7 3b 8c cb 1f bd 07 9e 43 bd 64 1e 86 bd
       0.005586819 -0.039012477 -0.04775813 -0.06548765
000220 fc 2e e2 bf 8b c5 87 bf 7d 43 9c bf ee 69 25 3e
       -1.7670588 -1.060716 -1.2208096 0.1615369
000230 a5 8d 5c be 41 7e 77 3e f6 1d 5d 3e 90 06 8c 3d
       -0.21538408 0.24169256 0.2159346 0.06837189
000240 a4 5a 47 3d 3f 4f 13 3c dd 8e d6 bf f0 7e 5d bf
       0.048670426 0.008991062 -1.6762348 -0.86521816
000250 0d 49 46 be 0b 54 dd 3e 38 99 3f bf e8 80 94 3d
       -0.19363804 0.43228182 -0.7484317 0.072511494

l3.bias f4 [19]
000000 90 7e 6f 3f b8 61 59 3f 3d c3 d4 3d 48 09 0f be
       0.93552494 0.8491473 0.10388801 -0.13968384
000010 38 91 92 be 75 af 36 bf a9 9d da be 10 df 52 be
       -0.28626418 -0.71361476 -0.4269841 -0.20592904
000020 09 aa 8c be 94 e0 32 bc 5e 3e d2 3e fe ce 36 3d
       -0.27473477 -0.010917801 0.41063207 0.044630997
000030 6a 32 d3 bc 24 65 81 3e e9 e5 1f bf 99 66 92 bb
       -0.025780875 0.25272477 -0.6246019 -0.004467797
000040 6c e9 04 bf 06 43 0c 3d 82 e4 c9 be
       -0.51918674 0.034243606 -0.3943215
